mlp_model.pth (torch, 26328 bytes, 7 tensors)

fc1.weight f4 [36, 12]
00000000: b308 b83d c610 8e3e a835 533e 5c5a 9a3d
00000010: 6f9a 8bbc 4ebd d33d 64a6 f4bd 65f1 1bbe
00000020: 7ce7 333e 3dd1 533d 2edc 633e 9c14 83bd
00000030: 8f38 aa3a cd5e 11bc cafb 873e b3d3 5b3e
00000040: c55e 22be c97b 0ebe d3d9 94be 4aed 273e
00000050: e1da 3c3e 2574 e6bc 566b 003e 786c 28bb
00000060: 9a83 f1bd b4ab 173e 7369 e93c 8e93 95be
00000070: c0b9 93be a67c 25be 7372 7c3d b682 923e
00000080: 9294 7e3e 9d00 d4be 36de cabd cdd6 833e
00000090: 9c62 053e 5883 94bd 409d 97be 8910 3fbe
000000a0: 7477 4e3e 6c2a 953d 240d 063e 9ad0 913e
000000b0: a717 793e 7173 b83e 35e2 d4bd 5286 103d
000000c0: 1929 afbe f85b 2dbe 88a9 28be 03e6 cf3d
000000d0: 25d2 6ebe 2b2d 113e 70d7 343d 50e9 883c
000000e0: 6dab 603e 21a9 51be 3d71 aabe a671 bcbe
000000f0: e566 873e ec81 8abe 7740 8b3c 3c59 35be
00000100: 769e 653e 3913 4e3d 5e38 7a3e 0bda a8be
00000110: 6b49 af3d 4456 f93d e6b0 4c3d bbaf a63e
00000120: 6ad1 9ebd 8cc1 9bbe 9c72 a2bd 176b b4be
00000130: c957 4cbe cff0 94be 6239 373e c679 383e
00000140: 4c5d 1fbe 2d9e ebbd a1d8 39bd 350e 633e
00000150: b12b dd3d 3f19 2e3e 72f2 31be 4d6f 4f3e
00000160: ee6e 783e dffe b73c a54b 7bbe 51bd b63d
00000170: cc76 76be b13b be3d 504c 69bc 8f8c 5cbe
00000180: 5d95 b2bd 3d2a 48be 8ae8 833e d8fe 06be
00000190: 4ad8 4f3e 50a1 de3c 4802 48be 830e 753e
000001a0: c085 a33d 3de9 d8bd 37c2 c0bd 70f1 ccbe
000001b0: d542 a13c fa5c 193d 8f21 83be 316c 8c3e
000001c0: 0ff2 383d c916 953d 3ef7 ec3d 90d2 a1be
000001d0: 86e1 45be bbe2 1a3e 00fa ae3d 2a7c 753e
000001e0: 2c0d 31be 469c 823e c2d2 833e 259d 463e
000001f0: 77bc 67bd 11bc 083e 3ae4 773e 3bd8 1f3e
00000200: 3aa5 0f3e 4be4 4f3d e925 1a38 5030 72be
00000210: 2e65 b9be 39d0 5cbe 0936 c2bd 46bc 90be
00000220: 73ef 20bd f341 413c 960c 0cbe d635 4ebe
00000230: 0b33 5b3e a65b 3dbe b568 b6bd f1a9 143d
00000240: 68b0 943c 4125 75bd 032a 8d3e c14d 85be
00000250: 28d7 29be 3488 6c3e ea3f 0f3d f91a 6bbe
00000260: 25f8 46be a0d5 783e a777 1fbd dbd1 bc3d
00000270: 7d27 333e 1184 71bd e151 39be 73bd 493e
00000280: f572 10be 8f74 7bbe dc56 2c3d ea43 b6bd
00000290: 472b cf3d a103 1ebe fe92 0f3e 6ab5 1a3e
000002a0: c952 933d c218 463e c0f6 7f3c 759b fdbd
000002b0: 59ad c73d 2593 55be 5670 edbd 784f 943c
000002c0: 9f02 8bbe 3899 653e f121 b0bd 7faf 3dbe
000002d0: 91b9 3d3e 9a46 773e ced6 28be 76a6 673e
000002e0: be0b 013e bfac 6c3e c203 c63c 5c45 443e
000002f0: 9bc8 823e 608b 003e fb1f 82be bc89 bb3c
00000300: 3b38 9abe 0fa1 85be 04ad e13d e7fb 99be
00000310: 29ce 793e 0e79 7f3e 801f 783e bf0a 06bd
00000320: 85f0 413e 1539 533d 2947 64be e8b8 5fbe
00000330: 7be1 613d b2fd 883e b613 09be d018 8d3b
00000340: 727d 283e f439 553e df85 ef3d 7f2c 333c
00000350: d85b 253d b008 3fbd e32a 463e b17e 13be
00000360: a628 833e c0e7 13be 7bcc 643d 994b dcbc
00000370: 4c80 26be e31c 633e 28ef 87be 7b35 553e
00000380: 5c0d 903e 22b2 0cbe 2b17 58be 1192 123e
00000390: 96c1 e8bd 41f1 723e 10dd d6bd 84a3 5d3e
000003a0: 3569 183b 11e2 183e b7fc d8bb 6b8b 2b3e
000003b0: 281a a33d 20d9 4fbe 7dc1 573d a4fd 5fbe
000003c0: 0e4a babe 6a02 f8bd ab5a 45be 206f 8abe
000003d0: 95b3 01be 730a 7d3c 815c 8a3d f315 cd3d
000003e0: 82b1 c63c 503a 253e 56a8 dabd f62b e8bd
000003f0: f471 773e 5a99 883e 1ca3 1abe 0de3 463e
0.08986034 0.27747172 0.20625937 0.07536766 -0.017041413 0.103388414 -0.11945799 -0.15228803
0.17568773 0.051713217 0.2225196 -0.06400415 0.0012986826 -0.0088727 0.26559287 0.21467476
-0.15856464 -0.13914408 -0.29072437 0.16399112 0.1844287 -0.028131554 0.12540945 -0.0025699418
-0.11792679 0.14811593 0.028492665 -0.29214138 -0.28852654 -0.16160831 0.061632585 0.2861535
0.24861363 -0.41406718 -0.099056646 0.25749817 0.13025898 -0.07251614 -0.2961216 -0.18658651
0.20162755 0.07283482 0.1309095 0.28479463 0.24325429 0.36025575 -0.10394708 0.035284348
-0.34211043 -0.16929615 -0.16470921 0.10151293 -0.23322351 0.14177386 0.04415077 0.016712815
0.21940394 -0.20474674 -0.3328952 -0.36805457 0.2644569 -0.27052248 0.016998513 -0.17709821
0.2242373 0.0503113 0.24435565 -0.32978854 0.08558925 0.12174657 0.04997339 0.32555947
-0.07754786 -0.30421102 -0.07932016 -0.35237953 -0.19955362 -0.29089972 0.17892984 0.18015203
-0.15562934 -0.11504779 -0.04537261 0.22173388 0.10799349 0.17001818 -0.17377642 0.20257302
0.24261066 0.0224604 -0.24540575 0.08922828 -0.24068755 0.09288729 -0.014239386 -0.21537994
-0.08719895 -0.19547363 0.2576335 -0.13183153 0.20297351 0.02717653 -0.1953212 0.23931317
0.07984495 -0.10591362 -0.094120435 -0.40027952 0.019685188 0.037442185 -0.2561154 0.27426293
0.04515272 0.072797365 0.11570595 -0.3160596 -0.19324312 0.15125553 0.085437775 0.23973146
-0.17290181 0.25509852 0.25746733 0.19395883 -0.05657622 0.13352992 0.24208155 0.15609829
0.14027873 0.050754827 3.6751768e-05 -0.23651242 -0.36210006 -0.21563806 -0.09482963 -0.2826864
-0.039290857 0.011795509 -0.13676676 -0.20137724 0.2140619 -0.18491992 -0.0890669 0.03629488
0.018150523 -0.05984998 0.27571115 -0.26035884 -0.16585982 0.23098832 0.034973063 -0.22959508
-0.19430597 0.24300241 -0.03893247 0.09219714 0.17495532 -0.05896384 -0.1809764 0.19701175
-0.14106353 -0.24556182 0.042075023 -0.08899672 0.101156764 -0.15431072 0.14020917 0.15108266
0.071935244 0.19345382 0.015622795 -0.12383167 0.0974986 -0.20856912 -0.11593692 0.0181043
-0.27150437 0.2242173 -0.08600224 -0.18523978 0.18527819 0.24148026 -0.16488191 0.22622094
0.12602136 0.23112772 0.024171714 0.19167084 0.25543675 0.12553167 -0.25415024 0.022892825
-0.30121025 -0.2609944 0.11019328 -0.30075 0.2439505 0.24948522 0.24230766 -0.032725092
0.18939407 0.05156811 -0.2229277 -0.2184788 0.055146676 0.26756054 -0.13386425 0.0043059364
0.16454104 0.20822889 0.11695456 0.010935902 0.040370792 -0.046639144 0.19352297 -0.14403798
0.2561695 -0.14443874 0.05585907 -0.026891517 -0.16259879 0.22178988 -0.2654965 0.20821182
0.28135192 -0.13739827 -0.21102588 0.14313532 -0.113650486 0.23724844 -0.10491383 0.21644408
0.0023256068 0.14929987 -0.006621923 0.16752402 0.07963973 -0.2029767 0.05267476 -0.218741
-0.36384624 -0.121098354 -0.19272868 -0.27037907 -0.12666161 0.015444386 0.06755925 0.10013952
0.024254564 0.16135526 -0.10676639 -0.1133651 0.24164563 0.26679498 -0.15101284 0.1942255

fc1.bias f4 [36]
00000000: f86b 903e 9621 12be d9dd d1bc b204 0a3e
00000010: 1f43 373e 8b77 8ebd 1668 083e dc5a 553b
00000020: 6118 93be 3553 723b 2f6b a33e b1d3 903e
00000030: eda9 08be 9bbe d9bb 1189 55bd 3248 64be
00000040: 0c48 04bd 6e6f 82be b0ff 17be d8a4 e33c
00000050: d702 313e 9e5c 6abe f522 d8ba 07d7 f73d
00000060: 7225 86be c10d 083d e000 e6bd 48bc 0cbe
00000070: dcc7 70be 2452 69be 9a52 3cbe 5d85 3ebe
00000080: 9793 873e 3582 29be afe8 04bc 67db 863e
0.28207374 -0.14270625 -0.02561848 0.13478354 0.17896698 -0.06956395 0.13320956 0.0032555377
-0.28729537 0.0036975865 0.31917712 0.28286508 -0.13346072 -0.0066450364 -0.05213267 -0.22293165
-0.03229527 -0.2547564 -0.14843631 0.027788565 0.1728624 -0.22886893 -0.001648991 0.1210156
-0.26200444 0.03321624 -0.11230636 -0.13743699 -0.2351374 -0.2278524 -0.18390885 -0.18605562
0.2647979 -0.16553576 -0.008112117 0.26339266

fc2.weight f4 [72, 36]
00000000: 49df 37bd 1998 2f3e 4912 eebd f09c 1a3b
00000010: fa29 1ebd 8895 2c3d b1ad 47be 5f2a 6b3c
00000020: 2013 6e3e ef37 ba3d 4ac2 383e ad11 a4bd
00000030: 3821 ba3c 8b25 e6bd bcfc e0bc 82dd 873d
00000040: 6a68 a3bd 3e86 01bd 893d 57bd 8f54 153e
00000050: 98b1 413d 917c 103e 250e b63d c752 00be
00000060: bbdb 0cbe 6aa6 26be c31b c03d 7724 12be
00000070: c5dd f43d 30d3 38bd 5c2d 16bc b65c e63d
00000080: 48c1 f1bd 26d3 1fbc fe28 2ebe 943c 3ebd
00000090: 6c54 00be 5209 17be c194 313d 1cb4 13bd
000000a0: 7cce b538 c0de 03bd 2971 0d3e 8c24 a03d
000000b0: e274 78bd 23f4 eb3d b4b3 983d 18cf 013e
000000c0: fa74 a73d bf22 453e f0b1 243d 5294 2f3c
000000d0: b119 4fbe 774e 413d 2441 933d d312 2ebe
000000e0: 389e 073e e25d 143e 504d c6bd 66cd 26bd
000000f0: e4fd 91be 0af5 c23d f267 073c 90ca a83d
00000100: 4a63 babd 462b 43be b5e2 f0bc 15a7 063e
00000110: b8af 87be 309a ef3d 5abe f83d 3c70 5dbe
00000120: 5a52 113e 632c 50bd f4b7 9b3d 7a2b a3bd
00000130: 4969 123e 5f59 203e 9a05 dcbd 41fe 163c
00000140: 69fa 95bd 9c7d fbbd 79d7 b93d 30f6 cf3d
00000150: b9de a1be a165 b03c 60e4 39be 3914 0d3e
00000160: 112e 74bd 5e13 ee3d 72c6 493e 8424 b93d
00000170: ea4e 03be 3bd9 883a 9857 063b 3bab d4bc
00000180: f8a0 e7bc 55aa 96be c26c 9bbd 8fa5 3dbe
00000190: d4cd 4abc ccc5 883d f965 8bbe 266d 6abc
000001a0: 743f 53bc 0708 e1bc 78cb d5bd 955e 5dbd
000001b0: 9c16 39bd 3ad2 49be 79b1 b43c 765c fb3d
000001c0: 2a71 1b3e 6580 ab3d 7867 2c3c 8aaa b8bc
000001d0: dec3 0ebc 2bdd 253e 001f 003c dfe2 5b3e
000001e0: 2422 d93c b0fd 863d 4cf0 bcbc 6b62 923d
000001f0: 8a2f cb3d edda d63d 9caf c13d 6e3f 933d
00000200: f04c ff3b 05be 203e 067a 49bc f944 a93d
00000210: b96e fd3d e9b1 293e 6bb6 08be 8a8f 67bc
00000220: a21f 823b 9ebf 313e 6ec8 7e3c 6662 5b3b
00000230: fbcd 06be c8b4 9bbc 6e05 8fbd d9e3 dabc
00000240: 2de9 10be 171d d9bc 1b3c 293d 3b66 bfbd
00000250: 8749 2f3e 63a7 363d cc8b 04be 839c 26be
00000260: 2ace 26bd c893 283e 969f bc3d 4fcd bf3c
00000270: 8b12 003e 70b9 453d 89fc eabc 5a0e 24be
00000280: 0e88 083e 3a9a 9a3d af93 98bd 06b0 1fbe
00000290: a8cc e3bd d240 873d 06de 153e 1ac1 073e
000002a0: 5444 c8bd d632 143e 452f f23d f3af f93d
000002b0: 48c5 4dbe 9189 15be c294 dd3d 22c4 2dbd
000002c0: cc1d b53d 51ed a9bd b85d efbb 9768 9dbd
000002d0: 1e56 273e 8730 dc3d 4ea4 a63d 5ee4 99bc
000002e0: 857f 673e 9cbf 633d 67ea 083e a957 1bbc
000002f0: 6f8f 3b3d 062d 443d a623 103e c1cf d03d
00000300: d183 19be 214e 94bc 9af5 693c 6682 2a3e
00000310: 3257 dd3d eb1c 03bd 99a3 c8bd 4ae2 b2bd
00000320: f243 113e 05ca 603e c85f f63d 6de7 0e3c
00000330: 7c49 ecbd 5998 da3d 7dfe 3f3e 3691 c0bd
00000340: 56c3 bebd fd30 d13d d63d 01be a8b2 4c3e
00000350: 39f3 873d c22e f13d 7331 3ebe 3444 923d
00000360: 86b6 9c3c db73 bc3c 69c0 963e f3ca cfbe
00000370: 1eef b4be a415 51bc 9f68 77bd d110 1b3e
00000380: bae1 303c 7739 99bd bb0f 51be aa5f 8bbe
00000390: 3cb9 95bc 10f1 eb3d e575 843d 0425 0dbb
000003a0: 0c62 27be 1987 95be 4c34 013e 08ff 14bd
000003b0: fb8f cfbe 5df2 493d 6e0e 423e 2a2a 213d
000003c0: cb95 223d ceca 7e3d 6004 8ebe 5428 0cbf
000003d0: fa2c 89bd 5d76 d6bc f3c3 6c3b dd74 c73c
000003e0: 0fa8 e33d d007 963a eea3 653e 948b 72bc
000003f0: ebd5 64be 13b2 19be ccc0 11be 52b7 d8bd
-0.044890676 0.17147864 -0.11624581 0.0023592077 -0.03861425 0.04213479 -0.19499852 0.014353364
0.23249483 0.090927 0.18042865 -0.08011184 0.022720918 -0.112376295 -0.027464263 0.06634046
-0.079789 -0.031622164 -0.05254892 0.14583038 0.047288507 0.14110018 0.088894166 -0.12531577
-0.13755696 -0.1627442 0.09380295 -0.14271723 0.11956362 -0.04512328 -0.009166088 0.11248152
-0.118044436 -0.009754932 -0.17007825 -0.04644449 -0.12532204 -0.14749649 0.043354753 -0.036060438
8.669213e-05 -0.032194853 0.13812698 0.07819471 -0.060658343 0.11521175 0.07456151 0.12676656
0.081766084 0.19251536 0.040208757 0.010716515 -0.20224644 0.04719397 0.07190159 -0.16999368
0.1324395 0.14488938 -0.09682715 -0.040723227 -0.28514016 0.09519394 0.008264529 0.08241761
-0.09100969 -0.19059476 -0.029404977 0.13149674 -0.2650125 0.11699331 0.12145682 -0.21624845
0.14191571 -0.05082358 0.07603446 -0.07967277 0.14297976 0.15659092 -0.10743256 0.009215892
-0.073231526 -0.122798175 0.09074301 0.101543784 -0.31615236 0.021532835 -0.18153524 0.13777246
-0.059614245 0.11624788 0.19704607 0.09040168 -0.12823072 0.0010440716 0.0020498987 -0.025960555
-0.028274998 -0.29426828 -0.07589103 -0.18520187 -0.012378175 0.06678352 -0.27226236 -0.01430825
-0.012893546 -0.027469648 -0.10439199 -0.05404528 -0.045187578 -0.19709101 0.022057282 0.12273495
0.15179887 0.08374099 0.010522716 -0.022542257 -0.008713691 0.1619765 0.007819891 0.21473263
0.026505537 0.06591356 -0.023063801 0.07147678 0.09921177 0.104909755 0.09457323 0.07189833
0.007791154 0.15697487 -0.012297159 0.082651086 0.12374634 0.16571774 -0.13350837 -0.0141333435
0.003971056 0.17358252 0.015550716 0.0033475398 -0.13164513 -0.019007102 -0.069834575 -0.026719974
-0.1415145 -0.026503129 0.041317087 -0.09345671 0.17117892 0.044593226 -0.12943953 -0.16270642
-0.040723957 0.16462624 0.09210126 0.023413328 0.12507074 0.04827255 -0.028684871 -0.160211
0.1333315 0.07548948 -0.074500434 -0.15594491 -0.111230195 0.0660416 0.14635476 0.13257256
-0.097786576 0.14472517 0.11825422 0.12191763 -0.20094788 -0.14603259 0.10819389 -0.042423375
0.08843574 -0.08297218 -0.0073048733 -0.076859646 0.16341445 0.10751443 0.081368074 -0.018785652
0.22607239 0.055602655 0.13370667 -0.009481349 0.045791086 0.0478945 0.14076099 0.10195876
-0.1499169 -0.018103661 0.014279747 0.16651306 0.10807647 -0.03201 -0.09796829 -0.087345675
0.14186075 0.21952064 0.120299876 0.008722168 -0.115374535 0.10673589 0.18749423 -0.09402697
-0.09314601 0.10214422 -0.12621245 0.19990027 0.06638188 0.117764965 -0.18573551 0.07141915
0.019130003 0.023004463 0.29443672 -0.40584525 -0.35338682 -0.012761507 -0.06040251 0.15143134
0.010796005 -0.07481664 -0.20416157 -0.27221423 -0.018276803 0.115205884 0.06467799 -0.0021536956
-0.16345996 -0.29204634 0.12617606 -0.03637603 -0.40539536 0.0493034 0.18950817 0.03934685
0.039693635 0.06220513 -0.27737713 -0.54749036 -0.06698032 -0.026179487 0.0036127537 0.024347717
0.11116039 0.001144642 0.22425815 -0.014803786 -0.22347228 -0.15009336 -0.14233702 -0.105818406

fc2.bias f4 [72]
00000000: 85ca d03d 23dc ecbd ddd8 c938 6513 bdbd
00000010: d647 9a3d 9067 babd d485 7f3c c951 1f3e
00000020: e09e 0ebd fbb8 ff3d bdd3 c4bd 68f2 6a3d
00000030: 69ec 593d 3c1e 5f3d 6a48 a93d c16a 223d
00000040: 2f07 dd3d fa71 4d3d 9dfe adbd 0935 f9ba
00000050: 0825 083c 763f c2b9 4618 fb3d d019 64bb
00000060: 81a0 3a3d c972 38bc 129c aebd 92b3 5a3d
00000070: e0c9 e5bc 6732 6fbd 6456 88bd a258 613d
00000080: 7f53 d9bc c657 af3d 924c 093e 3236 e0bd
00000090: cb56 60bc 959c b33d 5e88 883c 973a 153e
000000a0: 0061 f3bc c6fd d3bd 53be 1abe ae29 b93d
000000b0: 848b ebba 365d 373e 1cb1 9f3b 022e 23bd
000000c0: 18df aa3d e004 d83c cf6a 253e c2cb 133e
000000d0: 2ffd 41be 6e26 a1bd 17e0 c63d 002d 84bd
000000e0: 9c2b 7f3c dada df3d 90a7 963d 2042 b13d
000000f0: 94fb 273e dd6b 703d 6ec7 8bbc e318 2cbe
00000100: 06d2 82bb 6b9a 233d aea4 d7bc 0c65 d9bd
00000110: 8f7d c83d 1515 9abd d8eb 7fbd cf73 0ebe
0.101948775 -0.11565425 9.624821e-05 -0.09232215 0.07533233 -0.09101784 0.015595872 0.15558542
-0.034819484 0.12486454 -0.09610698 0.057360083 0.053203974 0.054472193 0.08265765 0.03965259
0.10792386 0.050157525 -0.08495829 -0.0019012998 0.00830961 -0.00037049846 0.12260489 -0.0034805425
0.045563225 -0.011257836 -0.08525862 0.053393908 -0.028050363 -0.058397677 -0.06657103 0.055016167
-0.026529072 0.08561663 0.13408116 -0.10947837 -0.013692568 0.087701 0.016666587 0.14573132
-0.02970934 -0.10351138 -0.15111665 0.09041153 -0.0017970656 0.17906651 0.004873408 -0.0398388
0.08343333 0.026369512 0.16154025 0.14433196 -0.18944238 -0.07868658 0.097107105 -0.064538956
0.015574362 0.109304145 0.07356179 0.086551905 0.16404563 0.058696616 -0.017062869 -0.16806369
-0.003992322 0.039942186 -0.026323643 -0.10614976 0.097895734 -0.07523552 -0.062480778 -0.13911365

fc3.weight f4 [36, 72]
00000000: 5f1a 8fbd e027 3d3d 04ed 8a3c 2e66 023e
00000010: dd79 87bd a0cd 5dbd 665e a5bd bf42 f63d
00000020: 7264 1b3e f741 aebc 3f49 fd3c 783c 11be
00000030: 25ea 26be b3f0 96bd eaf8 bbbd a15a 95ba
00000040: 5338 efbc 362e 19be e335 26bc d7bb af3b
00000050: 0159 fdbd 32b1 eebd 773e bcb9 f263 de3c
00000060: 8e56 a93b ec1d 543c 82ed 78bb 563a bd3d
00000070: 4811 80bd 44be 013e ab6e c4bd 0652 7ebd
00000080: 54dc 48bd 6b85 20bd c1f9 da3d 8056 bf3d
00000090: de4b 2bbe 0838 bb3d bb37 afbd b551 9e3b
000000a0: 5eea 043d 6f37 8ebc e471 c2bc 6ef1 8e3d
000000b0: ff7e 23be a245 613d c359 d8ba 3e73 a5bd
000000c0: 9e25 1f3d d3f0 d9bc ef56 ecbd df35 9c3c
000000d0: e363 f5bc ed43 ecbc 4b2d 7cbd 65fb 083d
000000e0: 24e2 bdbd 7426 e0bc ffeb d2bc 6a78 18be
000000f0: 4875 10be f7cf 39bc 53cc b2bd 312a 08be
00000100: fe47 b3bd d342 273d 9345 1c3e a195 193e
00000110: 47ba ee3d 9f82 adbd 7fae 0abe 6276 8fbd
00000120: e2a4 263e 9ef9 0fbe e3e1 043e 32ec 933d
00000130: 92d8 a5bd 8e74 263e ce93 283e 6f3a 143d
00000140: 86d1 1fbe ed6d 18bd b0b7 183b 34d4 b43c
00000150: 62c2 d83d 0caf c73d f163 c73b 0f69 5abd
00000160: 72b8 f5bc 167e 1e3e 3fe2 403c d72f d03c
00000170: 4230 05bd cc7d c43d c1d5 79bd 251a 433d
00000180: 7227 d23a 239c 0ebe 7c21 a0bd b453 8c3d
00000190: bc71 3e3d 71e0 bcbd c5fb 9b3d 31a9 ba3d
000001a0: c54d 3f3d be5a 9f3d 1430 8dbd 950f f7bc
000001b0: 62cc c23b 5656 cdbd 901a 7b3d f46d 87bc
000001c0: f320 04be ea8c 54bd 786f 6fbc c8f6 a0bc
000001d0: 46ec fa3d 05c0 76bc 61fe 90bd 8028 26bd
000001e0: 55b6 313e 0092 113e 34bd 013e 44a8 6b3d
000001f0: 15a5 fe3d bfd7 fa3c db20 f33c 82b9 fa3d
00000200: c228 adbd 282d a23d 252f f9bd 148e 173e
00000210: 60a2 3e39 a8e8 ffbd c791 b0bc b71a 023e
00000220: ed01 0abd 77cf 363d 43ff 38bd 50be a7bd
00000230: 5259 a83d 2f71 cc3c fbcb 05bd 9644 63bc
00000240: 67cf 363d 2a2f f1bd ddc1 083e 870a 02be
00000250: 86d6 98bd dcc5 1c3e 723a 803e 14cf 30bb
00000260: 1a5b b7bd cb17 abbb fb94 1f3e ddb2 2cbd
00000270: d784 913d da2d 80bd 801d a43c d4ed 60bd
00000280: 51a8 02bd 7ad6 0a3e 5a40 98bd c835 fd3d
00000290: 6ff0 023e 0c14 dfbc 4ac0 513b 6b98 a33d
000002a0: d2e2 ba3d 8fb5 f0bd 26c1 03bd a997 d6bd
000002b0: 31b2 42bd 432a 32bc 51f9 173e f000 6c3d
000002c0: 7999 8abd 0cd7 053e 2d2e d6bd d79d 18be
000002d0: 6979 273e e7dd c2bc 7646 b6bb bd3f a03d
000002e0: c564 c6bc 7cf7 c33d adae 4fbc 6940 99bc
000002f0: 07b5 083e 09c2 e53c 0893 cf3d 66f6 66bd
00000300: 20ed 113d 0751 c03d f0c0 ce3d b214 183e
00000310: 82a7 d03c 7695 8abd 3788 8bbc b4c8 bbbc
00000320: a9c3 eabd a48d 193e 0c04 12be 37b6 9a3c
00000330: 9ac2 ec3d 96d2 4cbd 6fb4 da3d bf19 7fbc
00000340: dad2 da3b fb50 fc3c 204e 1d3d a7f8 bbbd
00000350: 1ea1 513b e273 e8bd fb89 a8bc 4265 803c
00000360: 90f6 8f3d e4bc 01bd bbc5 b5bd 91a8 0a3d
00000370: 0200 c3bd 78e6 aebc ada3 89bd 61f3 b3bd
00000380: 5455 163c 4a59 b7bd 89da b8bd c0ec a13d
00000390: 4a30 8fbd c90f 8a3b dee7 963c 286a c9bc
000003a0: e519 f33c 0bdc 61bd 1aff 383d 1b25 463d
000003b0: ff36 9e3c 0f4a 68bd de63 84bc bc38 973d
000003c0: a731 96ba b10a 003d 356e 943c 9541 cf3d
000003d0: e95e 8dbd 4815 5c3d 3c26 5dbd 460d cd3d
000003e0: ef73 d03d 3bf7 aabd f314 03be 9e42 a63d
000003f0: 24b0 febd 0bdf 7fbd 3ba4 f9bd ea24 70bd
-0.06987452 0.046180606 0.016958721 0.12734291 -0.066150405 -0.054151177 -0.08074646 0.120244496
0.15175036 -0.021271689 0.030918716 -0.14183223 -0.16300257 -0.073701285 -0.09178336 -0.0011394807
-0.029201662 -0.14959034 -0.0101446835 0.0053629684 -0.12370492 -0.11654891 -0.00035904694 0.027147267
0.005167789 0.012946587 -0.0037983363 0.09239642 -0.06253296 0.12670237 -0.09591421 -0.062089942
-0.049038246 -0.039189737 0.10692168 0.093426704 -0.1672816 0.091415465 -0.085555516 0.0048315176
0.032450072 -0.017360417 -0.023735948 0.06979643 -0.15966414 0.054998048 -0.0016506243 -0.08078621
0.038854234 -0.026604092 -0.11540019 0.019068656 -0.029954856 -0.028840983 -0.061566632 0.033442874
-0.092716485 -0.027362086 -0.025747297 -0.14889684 -0.14107239 -0.011341087 -0.08730378 -0.13297345
-0.08753966 0.040835213 0.15260915 0.14998485 0.11656623 -0.084721796 -0.13543127 -0.070050016
0.16273835 -0.14060065 0.12976794 0.07222785 -0.08097948 0.162554 0.16462633 0.03618854
-0.1560727 -0.03721421 0.0023302846 0.022073843 0.105839506 0.097501844 0.006084912 -0.053322848
-0.029995177 0.15477785 0.011772691 0.025413437 -0.032516725 0.09594306 -0.060994867 0.047632355
0.0016033484 -0.13926749 -0.07818887 0.068519026 0.046495184 -0.09222496 0.076163806 0.09114302
0.046705026 0.077809796 -0.06893936 -0.030158797 0.0059447745 -0.10026233 0.06130463 -0.016531922
-0.12903194 -0.0518922 -0.014613979 -0.019648924 0.12252097 -0.015060429 -0.07079769 -0.040565968
0.1735471 0.14215851 0.12669832 0.057533517 0.12433831 0.030620454 0.029678753 0.12242414
-0.084550396 0.07918769 -0.12167195 0.14800292 0.00018180301 -0.124955475 -0.021553887 0.12705503
-0.033693243 0.044631448 -0.04516531 -0.08190596 0.082201615 0.024956314 -0.032665234 -0.013871333
0.044631388 -0.11776574 0.13355203 -0.12699328 -0.07462792 0.15309852 0.2504459 -0.0026978897
-0.08952923 -0.005221342 0.15584175 -0.042162765 0.07105415 -0.062587455 0.020033598 -0.05491431
-0.0318988 0.13558379 -0.07434149 0.123637736 0.1278703 -0.027231239 0.0032005482 0.07988056
0.09125294 -0.117533796 -0.032166623 -0.10478146 -0.047533218 -0.010874334 0.148412 0.05761808
-0.06767554 0.13070315 -0.10458026 -0.14903961 0.16354908 -0.023787452 -0.005562599 0.07824657
-0.024217973 0.09568688 -0.012675923 -0.018707471 0.13350306 0.028046625 0.10135466 -0.056387328
0.03562653 0.09390455 0.10095394 0.14851645 0.025470499 -0.06766789 -0.017032726 -0.022922851
-0.114631005 0.14995438 -0.14259356 0.018885715 0.11560555 -0.050005518 0.10678946 -0.015570103
0.0066779675 0.030800333 0.038404584 -0.09178286 0.0031986902 -0.11350228 -0.020573607 0.015673283
0.0702945 -0.03167428 -0.08875605 0.033852164 -0.09521486 -0.02135013 -0.06720672 -0.08786655
0.009175617 -0.089525774 -0.09026057 0.079064846 -0.06991632 0.0042133075 0.01842111 -0.024586752
0.029675433 -0.05514149 0.04516516 0.04837523 0.019313334 -0.056711253 -0.016160902 0.07383868
-0.0011458889 0.031260196 0.018118957 0.10119931 -0.06902868 0.053731233 -0.05399154 0.10012297
0.101783626 -0.08347937 -0.1280096 0.08118175 -0.1243594 -0.06246857 -0.121895276 -0.058628954

fc3.bias f4 [36]
00000000: 565a d9bd 5211 823c 652a 1a3d 7779 efbd
00000010: a94a 013e a601 cc3d 44ba b5bc 833d b9bd
00000020: 4184 54bd 5e67 e73c 5306 0c3e d7d3 ee3d
00000030: 3b01 093e 19bd 9a3c 7fa3 ae3d 5275 2d3d
00000040: 04fa 003d 51e4 a63c 38cd 4b3d 5be5 8a3d
00000050: 96e3 dfbd 855c 113d 0f09 ba3d 27f4 88bd
00000060: 80e7 233e af6c f13d fff2 c9bb c049 033d
00000070: 1adc 0ebd 454a a83d 4f45 093e 40ef ed3b
00000080: 675e 863d 4661 1ebc 7157 7bbd 043a cd3d
-0.10612933 0.0158774 0.037638087 -0.116930895 0.12626137 0.09961252 -0.022183545 -0.090449356
-0.05188394 0.028247532 0.13674287 0.11661499 0.13379376 0.018888997 0.08527278 0.042348213
0.031488433 0.020372542 0.04975626 0.06782027 -0.109320804 0.035488624 0.09083759 -0.06687193
0.16006279 0.11788308 -0.0061630006 0.032052755 -0.034877874 0.08217291 0.13405345 0.007261187
0.065609746 -0.0096667465 -0.061362687 0.10020831

fc4.weight f4 [1, 36]
00000000: 4cfe 35be 364e ba3d f495 c03d 2e79 abbd
00000010: e67e d33d 235d ecbd beeb 863d 8fee 8ebd
00000020: ce5e ebbd 1841 88bd ff9b d03d 3576 ebbd
00000030: 0296 04be 8edc 8bbe 7fac 31be 380d 883d
00000040: 7a99 1bbe dd65 b2bd 6065 023e acf1 17be
00000050: 4f75 0ebe c3cf 77be 10cc 4dbe fa83 e03d
00000060: 7958 173e 4c0c 513e 5e5f 543d 8302 573e
00000070: ed88 fabc f8c6 a33d 0713 a43d 8a7b b73c
00000080: e50d 79bd 4853 1abe 7d49 bb3d 33a9 42be
-0.17772788 0.09096949 0.09403601 -0.083727226 0.10326938 -0.11541202 0.06587933 -0.06979095
-0.11492692 -0.06653041 0.10186004 -0.114971556 -0.12947848 -0.27316707 -0.17350958 0.06643146
-0.15195265 -0.08710835 0.12733984 -0.14838284 -0.13911937 -0.24200349 -0.20097375 0.109626725
0.14779843 0.20414847 0.05184876 0.20997052 -0.03058287 0.07996935 0.08011442 0.022397775
-0.060804266 -0.15070832 0.09144876 -0.19009857
